"backend: tensorflow\nclass_name: Model\nconfig:\n  input_layers:\n  - [input_1, 0,\
  \ 0]\n  layers:\n  - class_name: InputLayer\n    config:\n      batch_input_shape:\
  \ !!python/tuple [null, 30, 768]\n      dtype: float32\n      name: input_1\n  \
  \    sparse: false\n    inbound_nodes: []\n    name: input_1\n  - class_name: Conv1D\n\
  \    config:\n      activation: relu\n      activity_regularizer: null\n      bias_constraint:\
  \ null\n      bias_initializer:\n        class_name: Zeros\n        config: {}\n\
  \      bias_regularizer: null\n      data_format: channels_last\n      dilation_rate:\
  \ !!python/tuple [1]\n      filters: 100\n      kernel_constraint: null\n      kernel_initializer:\n\
  \        class_name: VarianceScaling\n        config: {distribution: uniform, mode:\
  \ fan_avg, scale: 1.0, seed: null}\n      kernel_regularizer: null\n      kernel_size:\
  \ !!python/tuple [3]\n      name: conv1d_1\n      padding: valid\n      strides:\
  \ !!python/tuple [1]\n      trainable: true\n      use_bias: true\n    inbound_nodes:\n\
  \    - - - input_1\n        - 0\n        - 0\n        - {}\n    name: conv1d_1\n\
  \  - class_name: Conv1D\n    config:\n      activation: relu\n      activity_regularizer:\
  \ null\n      bias_constraint: null\n      bias_initializer:\n        class_name:\
  \ Zeros\n        config: {}\n      bias_regularizer: null\n      data_format: channels_last\n\
  \      dilation_rate: !!python/tuple [1]\n      filters: 100\n      kernel_constraint:\
  \ null\n      kernel_initializer:\n        class_name: VarianceScaling\n       \
  \ config: {distribution: uniform, mode: fan_avg, scale: 1.0, seed: null}\n     \
  \ kernel_regularizer: null\n      kernel_size: !!python/tuple [4]\n      name: conv1d_2\n\
  \      padding: valid\n      strides: !!python/tuple [1]\n      trainable: true\n\
  \      use_bias: true\n    inbound_nodes:\n    - - - input_1\n        - 0\n    \
  \    - 0\n        - {}\n    name: conv1d_2\n  - class_name: Conv1D\n    config:\n\
  \      activation: relu\n      activity_regularizer: null\n      bias_constraint:\
  \ null\n      bias_initializer:\n        class_name: Zeros\n        config: {}\n\
  \      bias_regularizer: null\n      data_format: channels_last\n      dilation_rate:\
  \ !!python/tuple [1]\n      filters: 100\n      kernel_constraint: null\n      kernel_initializer:\n\
  \        class_name: VarianceScaling\n        config: {distribution: uniform, mode:\
  \ fan_avg, scale: 1.0, seed: null}\n      kernel_regularizer: null\n      kernel_size:\
  \ !!python/tuple [5]\n      name: conv1d_3\n      padding: valid\n      strides:\
  \ !!python/tuple [1]\n      trainable: true\n      use_bias: true\n    inbound_nodes:\n\
  \    - - - input_1\n        - 0\n        - 0\n        - {}\n    name: conv1d_3\n\
  \  - class_name: MaxPooling1D\n    config:\n      data_format: channels_last\n \
  \     name: max_pooling1d_1\n      padding: valid\n      pool_size: !!python/tuple\
  \ [28]\n      strides: !!python/tuple [28]\n      trainable: true\n    inbound_nodes:\n\
  \    - - - conv1d_1\n        - 0\n        - 0\n        - {}\n    name: max_pooling1d_1\n\
  \  - class_name: MaxPooling1D\n    config:\n      data_format: channels_last\n \
  \     name: max_pooling1d_2\n      padding: valid\n      pool_size: !!python/tuple\
  \ [27]\n      strides: !!python/tuple [27]\n      trainable: true\n    inbound_nodes:\n\
  \    - - - conv1d_2\n        - 0\n        - 0\n        - {}\n    name: max_pooling1d_2\n\
  \  - class_name: MaxPooling1D\n    config:\n      data_format: channels_last\n \
  \     name: max_pooling1d_3\n      padding: valid\n      pool_size: !!python/tuple\
  \ [26]\n      strides: !!python/tuple [26]\n      trainable: true\n    inbound_nodes:\n\
  \    - - - conv1d_3\n        - 0\n        - 0\n        - {}\n    name: max_pooling1d_3\n\
  \  - class_name: Concatenate\n    config: {axis: 1, name: concatenate_1, trainable:\
  \ true}\n    inbound_nodes:\n    - - - max_pooling1d_1\n        - 0\n        - 0\n\
  \        - &id001 {}\n      - - max_pooling1d_2\n        - 0\n        - 0\n    \
  \    - *id001\n      - - max_pooling1d_3\n        - 0\n        - 0\n        - *id001\n\
  \    name: concatenate_1\n  - class_name: Permute\n    config:\n      dims: !!python/tuple\
  \ [2, 1]\n      name: permute_1\n      trainable: true\n    inbound_nodes:\n   \
  \ - - - concatenate_1\n        - 0\n        - 0\n        - {}\n    name: permute_1\n\
  \  - class_name: Bidirectional\n    config:\n      layer:\n        class_name: LSTM\n\
  \        config:\n          activation: tanh\n          activity_regularizer: null\n\
  \          bias_constraint: null\n          bias_initializer:\n            class_name:\
  \ Zeros\n            config: {}\n          bias_regularizer: null\n          dropout:\
  \ 0.0\n          go_backwards: false\n          implementation: 1\n          kernel_constraint:\
  \ null\n          kernel_initializer:\n            class_name: VarianceScaling\n\
  \            config: {distribution: uniform, mode: fan_avg, scale: 1.0, seed: null}\n\
  \          kernel_regularizer: null\n          name: lstm_1\n          recurrent_activation:\
  \ hard_sigmoid\n          recurrent_constraint: null\n          recurrent_dropout:\
  \ 0.0\n          recurrent_initializer:\n            class_name: Orthogonal\n  \
  \          config: {gain: 1.0, seed: null}\n          recurrent_regularizer: null\n\
  \          return_sequences: true\n          return_state: false\n          stateful:\
  \ false\n          trainable: true\n          unit_forget_bias: true\n         \
  \ units: 100\n          unroll: false\n          use_bias: true\n      merge_mode:\
  \ concat\n      name: bidirectional_1\n      trainable: true\n    inbound_nodes:\n\
  \    - - - permute_1\n        - 0\n        - 0\n        - {}\n    name: bidirectional_1\n\
  \  - class_name: Attention\n    config: {name: attention_1, trainable: true}\n \
  \   inbound_nodes:\n    - - - bidirectional_1\n        - 0\n        - 0\n      \
  \  - {}\n    name: attention_1\n  - class_name: Dropout\n    config: {name: dropout_1,\
  \ noise_shape: null, rate: 0.8, seed: null, trainable: true}\n    inbound_nodes:\n\
  \    - - - attention_1\n        - 0\n        - 0\n        - {}\n    name: dropout_1\n\
  \  - class_name: Dense\n    config:\n      activation: softmax\n      activity_regularizer:\
  \ null\n      bias_constraint: null\n      bias_initializer:\n        class_name:\
  \ Zeros\n        config: {}\n      bias_regularizer: null\n      kernel_constraint:\
  \ null\n      kernel_initializer:\n        class_name: VarianceScaling\n       \
  \ config: {distribution: uniform, mode: fan_avg, scale: 1.0, seed: null}\n     \
  \ kernel_regularizer: null\n      name: dense_1\n      trainable: true\n      units:\
  \ 3\n      use_bias: true\n    inbound_nodes:\n    - - - dropout_1\n        - 0\n\
  \        - 0\n        - {}\n    name: dense_1\n  name: model_2\n  output_layers:\n\
  \  - [dense_1, 0, 0]\nkeras_version: 2.2.4\n"
